hand_written_number_recognition_weights_and_bias/layer_1_bias.npy (npy, 528 bytes, 1 tensors)

array f4 [100]
0	0xbf013d06	-0.5048374
1	0xbd81c3dc	-0.06336185
2	0xbf901a9b	-1.1258119
3	0xbd818175	-0.0632352
4	0x3f56e784	0.83947015
5	0x3f0dc4f4	0.5537865
6	0x3fcb9376	1.5904377
7	0x3e3e397a	0.18576613
8	0x3f8f6992	1.1204093
9	0xbf1b0089	-0.6054769
10	0x3f5f450d	0.8721474
11	0x3d8609d5	0.06544844
12	0xbf7ecb85	-0.99529296
13	0xbf90b22d	-1.1304375
14	0x3f065f87	0.52489513
15	0x3def7848	0.11692864
16	0x4008dd83	2.13852
17	0x3ea44905	0.3208696
18	0xbf8aaa75	-1.0833269
19	0xbf846537	-1.0343388
20	0xbe01e266	-0.1268402
21	0xbfe10cd9	-1.7582046
22	0xbf2a266b	-0.6646487
23	0xbd8c5551	-0.0685221
24	0xbf88a329	-1.0674793
25	0xbcf03492	-0.029321942
26	0xc01e2174	-2.4707918
27	0xbbc8b838	-0.006125476
28	0x3e7323fd	0.23744197
29	0xbfed10fc	-1.8520808
30	0xbf245466	-0.6419128
31	0xbf87f951	-1.062296
32	0x3fea0896	1.828387
33	0x3f7cd1ae	0.98757446
34	0xbf95cf15	-1.1703821
35	0xbf89964d	-1.0748993
36	0xbf9cf450	-1.2262058
37	0x3e97fa19	0.29682997
38	0x3f7dff12	0.9921733
39	0x3f8c5e96	1.0966365
40	0xbfaf83a6	-1.3712051
41	0x3fd27e40	1.6444778
42	0x3e519dbe	0.2047033
43	0xbf7054df	-0.93879503
44	0x3d7eb401	0.062183384
45	0x3e8bf7cd	0.27337494
46	0x3de4a8c7	0.11165004
47	0x3f368036	0.71289384
48	0xbf5d3544	-0.864094
49	0x3fece856	1.8508403
50	0xbee67204	-0.45008862
51	0xbfc61ca2	-1.5477488
52	0x3ce44bd8	0.027868196
53	0x400fae1a	2.2450013
54	0xbfb3b8e7	-1.4040803
55	0xbfd39335	-1.6529299
56	0x3e2ec4c1	0.17067243
57	0xbf28fa5d	-0.66007024
58	0x3fd5442f	1.6661433
59	0xc00935ac	-2.1439009
60	0x3e9891f6	0.2979886
61	0xbff0ca0c	-1.881166
62	0xbd92c30a	-0.07166107
63	0xbe67940e	-0.22615072
64	0x3f4734ad	0.7781475
65	0xbf017e74	-0.5058358
66	0xbe254318	-0.16138875
67	0x3f2a6c81	0.66571814
68	0x3e73a3e3	0.23792987
69	0xc0083ec4	-2.128831
70	0x3ee25db2	0.4421211
71	0x3edbc2d1	0.4292207
72	0xbedf5e81	-0.43626788
73	0xbd0eda18	-0.03487596
74	0x3f843a65	1.0330321
75	0x3fcd2e40	1.6029739
76	0xbfae9893	-1.3640312
77	0x3e23e3a2	0.16004804
78	0xbe8e332b	-0.27773413
79	0xbe59d5aa	-0.21272913
80	0x3f377451	0.7166186
81	0xbf09af1a	-0.5378281
82	0xbf1ae268	-0.6050172
83	0xbf9fd6f2	-1.2487471
84	0x403b17b2	2.9233212
85	0x3f746ab6	0.9547533
86	0xbf83989a	-1.0280945
87	0x3fc855e0	1.5651207
88	0x3f85c553	1.0450844
89	0xbdc19a3b	-0.09453245
90	0xbf834ae1	-1.0257226
91	0xbee22444	-0.44168293
92	0xc04284d6	-3.0393577
93	0x3f6cd388	0.9251027
94	0xbeac2627	-0.33622858
95	0x3dc36ec8	0.09542614
96	0xbe5aa17b	-0.21350662
97	0xbfbfa9fd	-1.4973751
98	0xbe7c9087	-0.24664508
99	0xbf2e02e1	-0.6797314
