hand_written_number_recognition_weights_and_bias/layer_1_weights.npy (npy, 313728 bytes, 1 tensors)

array f4 [100, 784]
000000 e2 c8 f5 3e b9 d0 1a 3f 89 b1 b6 bf b1 c3 8b 3f
       0.48004824 0.60474735 -1.427293 1.0919095
000010 76 08 dd bc b9 df 12 3f 38 48 0e bd 29 df a6 3f
       -0.026981574 0.57372624 -0.034736842 1.3036853
000020 7c d1 c0 3f 9f a9 8a 3f f4 b1 c7 3f e3 d2 ae 3e
       1.506393 1.0833014 1.5601182 0.3414527
000030 83 ed 91 3f b2 ef f8 be a0 37 04 c0 56 0b 28 3f
       1.1400608 -0.48620373 -2.065895 0.656423
000040 3f 4a 88 3f 18 b7 e9 3d 43 41 d7 be 28 a0 10 bf
       1.0647658 0.114118755 -0.42041978 -0.5649438
000050 67 d3 0f 3f 65 d5 69 bf 95 c6 b1 bf b4 52 97 be
       0.5618195 -0.9134124 -1.3888727 -0.29555285
000060 fa 97 61 bf d0 f3 d2 bf 64 9a ed be ab b2 0f bf
       -0.8812252 -1.6480656 -0.46406853 -0.56132
000070 82 9f 82 bf 75 1a 81 bf b5 9e d4 bd 91 96 c7 3e
       -1.0204928 -1.0086199 -0.103818335 0.3898206
000080 10 5a d4 3e ca 5f 35 3f 41 7d 74 bf 30 ba 57 bf
       0.41474962 0.7084929 -0.9550362 -0.84268475
000090 21 71 56 bf 0e ce 9b 3e 3d 23 21 bf 77 77 74 3e
       -0.8376637 0.30430645 -0.62944394 0.23873697
0000a0 55 aa 38 3d 17 ea 9f 3c d4 f1 1d 3d 64 ef d0 3e
       0.045084316 0.019520802 0.038560703 0.4080764
0000b0 e6 be 2d 40 26 d3 25 3f f1 77 37 3f 1c 09 ad bf
       2.7147765 0.6477531 0.7166739 -1.3518405
0000c0 fa 1f a8 3f 9a 55 08 3f 62 24 e4 3f 07 ec d6 3e
       1.3134758 0.5325562 1.7823603 0.4197695
0000d0 85 af 38 3f 0f dc ba bf d4 43 8b bf d7 f0 f3 be
       0.7214282 -1.4598407 -1.0880075 -0.47644684
0000e0 31 8e 01 be 59 c5 51 bf f7 5c 5e 3d 31 5b 3e 3f
       -0.12651898 -0.81941754 0.054287877 0.743579
0000f0 97 e9 44 3e d2 f8 ab be dd 68 54 3f 5e 21 d3 3e
       0.19229732 -0.33588272 0.8297251 0.41236395
000100 dd 85 71 3f 28 9f c0 3e 15 f7 af bf 5a ed 8f 3f
       0.94344884 0.37621427 -1.3747278 1.1244309
000110 4f c2 30 bf 7f 6c 99 3e 20 95 55 bf b4 ff 8d be
       -0.6904649 0.29965588 -0.8343067 -0.27734149
000120 6a 10 77 bf cb 59 cd 3f 68 c1 94 be 84 6a 2e 3f
       -0.9650942 1.6043028 -0.29053807 0.6813128
000130 fc ec bc be 1b 61 aa be 52 5f 60 bf e9 aa 5e 3f
       -0.36899555 -0.3327721 -0.8764545 0.8697954
000140 fe cb eb 3f 5e 9e ac bf 01 83 0f c0 fd 1d d0 3e
       1.8421628 -1.348583 -2.2423708 0.4064788
000150 49 09 84 3f dd 9c 39 bf 67 1f 28 c0 f4 cc 03 c0
       1.0315334 -0.7250498 -2.6269166 -2.0593843
000160 bf 0c ae 3f 8f a9 0d bf fb 5b cc 3f 5c 38 17 40
       1.359764 -0.5533685 1.596557 2.362815
000170 0a a1 cb 3e 21 2d 7b be ba 89 13 c0 30 26 d6 bf
       0.397713 -0.24528934 -2.3052812 -1.6730404
000180 48 58 f5 bf 57 ac f6 bc 4c 61 4c bf ce d5 9a 3f
       -1.9167566 -0.030111475 -0.79835963 1.2096498
000190 e0 07 a7 bf 94 a7 fb 3f 92 e1 ae 3e 46 03 38 3f
       -1.3049278 1.9660516 0.34156471 0.71879995
0001a0 be 6c bb bf 81 73 3c 3e 13 28 3e 3f 5b 12 02 bf
       -1.464256 0.18403436 0.742799 -0.5080926
0001b0 43 37 1c bf d6 d3 fc bf 86 b7 65 3f d4 dc 72 bf
       -0.6102182 -1.9752147 0.8973316 -0.94868207
0001c0 3b cf b4 bf c2 06 ac bf 7c 6f 0f 3e aa 86 68 3f
       -1.4125742 -1.3439562 0.14007372 0.9083048
0001d0 6b e7 b8 bf 9c 5c 90 bf a0 f1 53 bf df 3d c4 bf
       -1.4445623 -1.1278262 -0.82790565 -1.5331382
0001e0 de d3 8c 3e a6 50 36 3f a4 37 50 3d 03 b4 aa 3d
       0.27505392 0.7121681 0.050834313 0.08335116
0001f0 4c 2e 8b be ca 8c 81 3e 82 cd c5 3f 73 00 a3 3e
       -0.2718376 0.25302726 1.5453341 0.3183628
000200 cc ae 8b 3e b5 ad 8d 3f af 46 ed 3e b8 0e a8 bf
       0.27281797 1.1068636 0.4634299 -1.3129492
000210 44 65 81 3f c4 38 58 be ef 0b 59 3e bb 2f 08 3f
       1.0109029 -0.21115404 0.21195959 0.5319783
000220 a8 de 23 bf 09 23 da bf d9 72 1d 3f 00 35 a3 be
       -0.6401162 -1.7041942 0.6150337 -0.31876373
000230 2b 16 18 bf d4 0f 42 bf 50 58 69 3f e2 ee 3f be
       -0.59408826 -0.758054 0.9115038 -0.1874347
000240 ae 56 89 3e 2d 66 63 bf 48 1d 9b 3f d9 4f a8 3f
       0.26823944 -0.8882778 1.2118311 1.3149368
000250 6a bc b6 be 85 07 43 3f f8 7e fb 3f 0d 9a 80 3f
       -0.35690624 0.7618335 1.9648123 1.0047013
000260 16 be 0f 40 df 99 21 3f 12 36 95 3c e4 d7 6d bf
       2.245977 0.63125414 0.01821426 -0.9290755
000270 06 6d dc 3b ab 20 34 3d 63 4d b0 3d 2c ef a4 3f
       0.006726864 0.043976467 0.0860851 1.288549
000280 9e da 0b bf 6a 28 52 3e f9 bf dc bf f4 e6 3b bf
       -0.5463046 0.20523229 -1.7246085 -0.7339928
000290 f4 cc c0 be 1d 27 22 c0 ab 20 a2 3f 79 64 02 c0
       -0.37656367 -2.5336373 1.266622 -2.0373824
0002a0 f2 5b 10 3e 2c f7 2e be 7b 16 15 3f 53 73 29 be
       0.14097574 -0.17086476 0.5823743 -0.16547899
0002b0 3a 50 a2 3f d3 8b 25 3f fd 66 b1 bf 47 70 76 bf
       1.2680733 0.6466648 -1.3859555 -0.9626507
0002c0 8b e3 7f 3f 5c ab 59 bf 51 d3 6a 3f cb 13 0f 3f
       0.9995658 -0.850271 0.91728693 0.55889577
0002d0 4e 4f 6e 3f 24 9e 86 3f d6 bb 00 3f 79 62 c0 be
       0.9308976 1.0517011 0.50286615 -0.3757513
0002e0 74 f6 83 be 7d 19 c9 3e d7 5a 3e bf 44 80 47 3c
       -0.25773966 0.3927726 -0.7435736 0.012176577
0002f0 20 74 17 3e 53 5f 9b be e3 b1 8e bf 44 3f 20 40
       0.14790392 -0.30346164 -1.1148037 2.5038614
000300 46 ac c4 bd 25 91 86 bf 82 05 d8 3d b8 31 93 bd
       -0.09603171 -1.0513045 0.105479255 -0.071872175
000310 2c 20 2a bf fb b6 01 be 06 ba a6 3e f1 64 0a 3f
       -0.6645534 -0.12667458 0.325638 0.54060274
000320 d3 c9 16 bf 5d e6 ed 3e 32 2b 2a bf 75 8e 84 3f
       -0.5890171 0.46464816 -0.6647216 1.0355974
000330 f7 17 5f 3f 25 a7 65 be 1f 7f 86 3f fb dd 96 3e
       0.8714594 -0.22427042 1.0507544 0.29466233
000340 18 63 91 3f dc 25 6d bf b0 56 df 3f e5 c0 a5 be
       1.1358366 -0.92635894 1.744833 -0.3237373
000350 98 bb 7f be a4 f2 f3 bd 20 5e 97 be 92 bc cd bd
       -0.24973905 -0.119115144 -0.29564 -0.100457326
000360 a2 5c 21 bf bd b1 8f 3f e1 40 c8 bc 4c f9 aa 3f
       -0.6303197 1.1226116 -0.024445 1.3357329
000370 38 23 29 bf 5c 87 be 3e 6f 1f 22 3f d0 26 25 3e
       -0.66069365 0.37212646 0.63329214 0.16128087
000380 ea d1 a0 bf ed a3 49 be 94 ce 4f 3f 82 4b 10 bf
       -1.2564061 -0.19691439 0.8117459 -0.56365216
000390 3e eb c8 be 35 9a 83 3f a3 f8 52 bf 4d 5e 1d be
       -0.39241976 1.0281435 -0.8241064 -0.15368004
0003a0 a8 dd cc 3c 47 bd 20 bf c3 d1 99 3f 75 e8 38 3e
       0.025008038 -0.62788814 1.2017139 0.18057425
0003b0 a2 cd d4 3d 58 57 f9 3f 28 cc 24 3f fa 4a 9d 3f
       0.10390784 1.947978 0.6437402 1.2288506
0003c0 37 dc 4c bf f0 dc 1f bf 81 84 27 3f 78 21 34 3f
       -0.8002352 -0.624465 0.6543656 0.7036357
0003d0 68 d3 ec 3f 39 4b 1a 3f be 10 4b bf 38 c7 68 3f
       1.8502016 0.6027103 -0.7932242 0.90928984
0003e0 3f fd bd bf 9d 5a e8 bf eb d5 82 40 4b ce 7b 3f
       -1.484291 -1.8152653 4.088613 0.98361653
0003f0 52 8f dc 3d 10 90 08 bf b6 c2 6c 3f 1a f5 8b bf
       0.10769524 -0.5334482 0.92484605 -1.0934174
